fyp_silent_speech_one/lib/assets/ml/cnnModel.pt (torch, 121543 bytes, 14 tensors)

layer1.0.weight f4 [16, 1, 5, 5]
00000000: 3db3 10bd 940f 4ebe f7bb 2ebe e918 1ebe
00000010: 0171 efbd 10dd 6cbe 7666 b43c bc40 50be
00000020: e1ef 143d 8256 343d 43a8 4cbe 2fe3 9fbd
00000030: 5ad1 e3bd fd54 3e3e acc9 443e 5c2a 14be
00000040: eaf2 1cbd 866b 14bd 22f4 ea3d 16ec c03c
00000050: bdd7 d6bd 2579 823d 422d 16be 1e67 433d
00000060: 0c26 c33d 3630 5d3e d545 483e e8b8 8ebd
00000070: 39d4 d0bd 6535 6a3d 1fef 873d 8e7a 08be
00000080: 44cf 5dbe f962 323d d672 2b3d 6b09 b7bc
00000090: 1101 84be 8312 ebbd be2c 043e bd01 1cbd
000000a0: bb26 aa3d 0a4c 9dbd dddf d33d e415 5d3e
000000b0: bfc2 e8bd b783 3b3c 3c5a de3d 7322 5bbd
000000c0: e035 9d3d 0920 97bd 4403 87bc b653 abbd
000000d0: e58f 7d3d 4f18 8a3e b8a4 8f3d 9d9f 4ebe
000000e0: 4748 7c3c 557b 75be fca0 2bbe 2379 ee3b
000000f0: a99e 793d 1765 aabd 61a8 0bbe cbaf 35be
00000100: 9c39 eebd 4b7c dd3d 6907 39bc a7f8 e5bd
00000110: 9842 38ba e8fc 23be 180c a13d 6aaa 3d3e
00000120: 77ff 393e c0cc 4b3e 1b64 903d f04e 8dbd
00000130: b299 95bd 9d3d dc3c 5939 32be ada6 f03d
00000140: 560e 54be 042e 9fbd 1f7b 10be 8675 c0bd
00000150: 0ee3 a3bd cea7 303e 0112 983d afb0 863d
00000160: 1a30 183e bb06 f4bd b152 513e 2db4 5a3c
00000170: 90bc 6d3d 99f2 04be 9f2d b6bc 990e 01be
00000180: 07fc 00be c7a0 9e3d 9563 f93d 4baf 913d
00000190: a6a7 ebbd a579 5c3d 4324 37bd 9c27 d83d
000001a0: e5b5 dbbd 8761 1dbd cbda 273e ee0b 48bd
000001b0: 7a0e 073e 23ff 2fbe d36e 3e3e 94a6 a83d
000001c0: 4eab 62bd f35c 4dbe cfb3 293e 003a 6c3d
000001d0: 9b8d 36bd 4c2d f23b 65bf 293e 7844 27be
000001e0: 7323 99be 3141 cabd 1c39 7fbd ccdb e8bd
000001f0: 9385 9abd b7b3 9e3d 8652 e13d 8343 5a3d
00000200: 7291 d53d 9c30 b53d cde5 44be 1f82 c73c
00000210: a708 803d edf5 dbbd cbcf 2bbe c27e 9ebd
00000220: bfcb f4bd 406e 6fbe af39 06be 9d0d c1bd
00000230: a48d 2a3d 1622 a1bd b3c6 803c 0573 583d
00000240: 02a8 793d fb43 dcbd 82e6 3ebd 594f 243d
00000250: 9096 383d fbae 173d 1eeb 7cbe 98cd 243e
00000260: 2325 343e ce0c 083d 7908 4cbe c4f1 593d
00000270: fe8e 8ebc 3d92 083d 6acc 53bc 4e1e 95bc
00000280: eff3 b53d e3aa 183e e362 d2bd 4f41 58be
00000290: d5ae 4fbe 3733 e63d 92f8 f93d 07fe 3cbe
000002a0: c47c 64be 20c0 e6bc 1576 15be 3794 5cbe
000002b0: 989f 7a3d 79c4 dabd 8f2d 683e 8744 0b3e
000002c0: 6710 3f3d b171 aebd 0374 8d3d 4eb5 02bd
000002d0: 1512 edbd 5e05 a03d f187 423d a57b aabd
000002e0: 9636 6bbc 5765 fcbd cd69 013e 4b5d 063e
000002f0: 1dd4 08be 94de 80be 79d7 453d 1ba4 dbbd
00000300: 7d01 943e 479b 2dbe 61fa aa3d c9fc 15be
00000310: 3fc3 0cbe 3ed7 0f3e 0b7a 373e ebd4 bbbd
00000320: c1e1 293e e80c ad3d e861 9a3d a0c7 043d
00000330: e460 b2bd 16c1 313e 6907 063e 0101 393d
00000340: 559f e1bc ca57 ae3d d238 c43d 303e 063e
00000350: 83b8 363c c322 22bc 5c1d 103d f0a5 f9bd
00000360: b449 f73d 4752 983d d111 cc3d 6080 2c3e
00000370: 7f9b 2bbd 38c0 4b3d 28a6 203e 6b3c 883d
00000380: 8690 c23d 1ca8 47bd 244a 40bd 0647 c53d
00000390: 225d af3d 44e7 363e 08b0 dc3c 7c68 613e
000003a0: 2e0d 7f3d e072 f23d e24e 5c3d 0254 1f3e
000003b0: a2a6 cdbc 31bd 31bd 616f 973c 3b41 34be
000003c0: 0406 5bbe c904 4ebe ccea a3bc df5c 21be
000003d0: ad00 c0bd 46bc 233c 1b58 023d 4221 26be
000003e0: e3c0 c9bd 49d8 443c c840 593e 05d1 4ebe
000003f0: 37c1 c93c d32d 0cbe 2635 0c3d 9c4e 1cbe
-0.035327185 -0.2012313 -0.1706389 -0.1543919 -0.11691476 -0.23131204 0.022021513 -0.20337194
0.03636158 0.044027813 -0.19986062 -0.07807004 -0.11123915 0.18587108 0.19217557 -0.14469284
-0.0383176 -0.036235355 0.11472346 0.023550075 -0.104903676 0.06370763 -0.14665702 0.047705762
0.09528741 0.21600422 0.19557889 -0.06968862 -0.10196728 0.057179827 0.066374056 -0.13328001
-0.21661097 0.04355142 0.041857563 -0.022343358 -0.25782064 -0.1147814 0.12907693 -0.038087595
0.083081685 -0.07680519 0.10345433 0.21590382 -0.1136527 0.0114449775 0.108570546 -0.05349965
0.076762915 -0.07379157 -0.01648105 -0.08365576 0.061904807 0.2697167 0.070138395 -0.20178075
0.015398092 -0.23972829 -0.1676063 0.007277624 0.060942326 -0.083200626 -0.1363845 -0.17742841
-0.11632082 0.108147226 -0.011293271 -0.11229067 -0.0007028966 -0.16014445 0.07863635 0.18522039
0.18163858 0.19902325 0.070503436 -0.06899822 -0.07304706 0.026884848 -0.17404689 0.11750541
-0.20708594 -0.07772449 -0.14109467 -0.09397416 -0.080022916 0.17251512 0.07425309 0.065766685
0.148621 -0.11915346 0.204417 0.013348621 0.058041155 -0.12983169 -0.02223855 -0.12603225
-0.12596141 0.077455096 0.12177197 0.071135126 -0.11506586 0.053826947 -0.044712316 0.1055443
-0.10728053 -0.038423087 0.16392057 -0.048839502 0.13189116 -0.1718717 0.18596964 0.08234897
-0.05533915 -0.20054989 0.16572498 0.0576725 -0.04456864 0.0073906537 0.16576917 -0.16334713
-0.29909858 -0.098757155 -0.062310323 -0.11370048 -0.075450085 0.07749122 0.11002068 0.05328704
0.10428132 0.08847162 -0.19228287 0.024354039 0.0625165 -0.10740266 -0.16778485 -0.07739021
-0.11952924 -0.23381901 -0.13107942 -0.09426425 0.041638985 -0.078678295 0.015719747 0.052844066
0.06095124 -0.10755154 -0.046606548 0.040114734 0.045065463 0.03703211 -0.24699065 0.16094053
0.17592292 0.033215337 -0.19925107 0.05320908 -0.017402168 0.03334259 -0.012927154 -0.018202927
0.08884417 0.14908938 -0.102727674 -0.21118663 -0.20281537 0.11240237 0.12205614 -0.18456279
-0.2231322 -0.028167784 -0.14595826 -0.21540914 0.061187357 -0.106820054 0.22673629 0.1360036
0.046646502 -0.08517779 0.06906893 -0.031911187 -0.115757145 0.07813524 0.047492925 -0.083243646
-0.014356276 -0.123240165 0.12638016 0.13121526 -0.13362165 -0.25169814 0.048301194 -0.1072466
0.28907385 -0.16953765 0.08348537 -0.14647211 -0.13746355 0.14046952 0.1791765 -0.0917147
0.16590025 0.08449727 0.075382054 0.03241694 -0.08709887 0.17358813 0.13088764 0.045166973
-0.027541796 0.08512838 0.0958115 0.1310966 0.011152389 -0.009895983 0.03518425 -0.12189853
0.12074605 0.07437568 0.09964336 0.16845846 -0.04189634 0.04974386 0.15688384 0.06652149
0.09500222 -0.048744306 -0.046945706 0.09632687 0.085626855 0.17861658 0.026939407 0.22012514
0.06226843 0.11838317 0.053786166 0.1555939 -0.02510387 -0.043393318 0.018485727 -0.17603008
-0.21389014 -0.20119013 -0.02000942 -0.15758084 -0.09375129 0.009993618 0.031822305 -0.16223624
-0.09851243 0.012014457 0.21216118 -0.20196922 0.024628265 -0.13689356 0.034230374 -0.15264362

layer1.0.bias f4 [16]
00000000: 9898 b63c d4ee 82bc 4264 3d3e 7873 1e3d
00000010: f1dd 04bc 5462 dcbd fa0c 833d fafb 13be
00000020: 429f e93d 7f21 5d3e c284 193e 7e8c 9e3d
00000030: db90 553e 8c4c 14be a0f4 2dbc 4a9a 6cbe
0.02228956 -0.015983023 0.18495277 0.03868434 -0.008109556 -0.10760942 0.063989595 -0.1445159
0.11407329 0.21594809 0.1499205 0.077416405 0.20856039 -0.14482325 -0.010617405 -0.23105732

layer1.1.weight f4 [16]
00000000: 6a91 933f 6341 6f3f 7f5b 8c3f 71e9 783f
00000010: 525e 793f a817 9a3f 5fb7 813f c482 643f
00000020: bc7c 433f 6507 883f 6e11 893f 7c11 623f
00000030: 1d0d 413f 7eb0 7a3f af75 743f 5785 953f
1.1528752 0.9345915 1.0965422 0.97231203 0.97409546 1.2038469 1.0134085 0.8926203
0.76362205 1.0627257 1.0708444 0.8830793 0.75410634 0.97925556 0.9549207 1.1681317

layer1.1.bias f4 [16]
00000000: 9cd3 edbd 269d 93be 64e4 d8bc aca2 e1bd
00000010: f628 59be 4bd4 11be 18a2 56be c8b1 b1be
00000020: d6bc c2be e2ed 26be d887 16be 1517 56be
00000030: 3e5c 59be c85f 1bbe cdfb 49be 6566 a83c
-0.11612627 -0.28830832 -0.026476093 -0.11017355 -0.21207032 -0.1424114 -0.20960271 -0.3470595
-0.38034695 -0.16301683 -0.14700258 -0.20907243 -0.21226594 -0.15173256 -0.1972496 0.020556638

layer1.1.running_mean f4 [16]
00000000: 1014 02be bae7 34bc b809 233e 9d70 51bb
00000010: 2ad7 b0bd bb97 36be 245b edbc 1c70 2abe
00000020: ab84 a73e 32d8 3e3e be0e 9e3d 5613 9d3d
00000030: 5d31 883e 1ef4 43be e317 5bbd 4a72 91be
-0.12702966 -0.011041576 0.15921676 -0.0031957992 -0.08634789 -0.17831318 -0.028974123 -0.16644329
0.32718405 0.1863716 0.077176556 0.07669704 0.2660016 -0.19136092 -0.053489577 -0.28407508

layer1.1.running_var f4 [16]
00000000: 04c7 043e 536c a63c af55 243d 5e29 9b3c
00000010: 9887 ef3c 0f48 0e3d ef61 873d ad58 5c3c
00000020: fa06 f43d fc87 3d3d 344c 4b3d b89a ed3c
00000030: a3dc b23c 386e e53c 4197 473d 36b9 033d
0.12966543 0.020315325 0.040120777 0.018940624 0.02923946 0.03473669 0.06610476 0.013448876
0.11915393 0.046272263 0.04963322 0.02900444 0.021833723 0.028006658 0.04872823 0.032159053

layer2.0.weight f4 [32, 16, 5, 5]
00000000: 9462 82bc fc00 fbbc 1ee5 98bd c916 74bd
00000010: 4fb6 abbc 6228 b0bd 3ad6 46bd 1cda e9bd
00000020: 364d 953a 4780 babb b546 efbd 68fb 93bd
00000030: 9b19 d2bd cf7f ef3b a8eb b8bd cf57 39bc
00000040: 438b 7b3d 7bc3 b23b 000a 0dbd cea3 90bd
00000050: acac e43c 2103 1a3d 80ce 813d d861 e83b
00000060: 2c18 55bd 9897 643d 4663 873d c173 deba
00000070: 31e3 b13d 3b5b c03d ddb5 983d cf8e a63d
00000080: f134 9ebd 7395 85bd 5018 f8bc 1af8 78bd
00000090: 5e13 ce3b 0001 2e3d 347a 34bd cd4e e4bc
000000a0: e8da 8bbd f78c 853d a585 7f3d e7bd 16bd
000000b0: f6ac b73c 285a 5e3d 388d 6e3d 7d0f bd3d
000000c0: 66bc cf3d a968 253d ef73 a43d 6cbf 723d
000000d0: ffcf 653d 3b97 e83d 8e20 ea3c 37fb 0f3e
000000e0: b700 8a3d d7ac 39bb 5c7e 253c 9bcb b4bd
000000f0: a732 a13d 2a2b e83c e9cf 453c 3b19 3ebd
00000100: d4c3 1fbd ae60 30bd 261c b7bc 0037 d6bd
00000110: 6092 70bd 877d 9dbd 1b0d e63d ecef ca3d
00000120: 7420 f33d 60a3 933d de49 0b3e 3ea5 dabd
00000130: 7a50 12bd b740 4cbc c745 233d ab8a 82bc
00000140: 1934 683c a40d f73c ea6c 9c3d fede bbbc
00000150: 8c8a 2f3d 9a75 28bd 58b5 c8bb 3427 c2ba
00000160: 9049 83bc 71c7 3f3c 8b3c 1f3b ad60 6e3c
00000170: e568 093c 0cd4 343c b332 053c 9d46 1a3d
00000180: 6eba 81bc fb5b b73b 0306 cc3b 68bb 233d
00000190: 4836 98bc 2ea1 523c 1898 64bd 4792 95bd
000001a0: 780f ba39 5b94 673d 22c2 ee3d 4c66 22bd
000001b0: 12ec 22bd 3cd3 0f3d b626 4ebd a748 643d
000001c0: 3459 15bb c1c8 97bd 2176 e7bc f447 b2bd
000001d0: 9539 dbbc abbe 2dbd 9fe3 bd3c 5f33 3cbd
000001e0: 1d92 baba 3c1b 36bd 2563 3a3d 8d9c 0fbd
000001f0: 0a70 44bd 3949 22be d30d 25be 1506 c9bd
00000200: 70ef 3b37 97c1 a33d e73e bd3d 6e61 cd3d
00000210: 2eac 24bc cee9 433d 35e1 763d 39de 003e
00000220: c8bb a53d 49be 123c 0531 fb3b fa65 303d
00000230: 4244 3d3e a385 5a3d c618 6e3c bd2f 82bd
00000240: ee4e 22be 164d 123d c122 9ebb 00a5 3c3d
00000250: bc17 bdbd 3c62 0ebe 8e5c 763d 5961 5fbd
00000260: 29f0 57bd b2db 673d 0783 2d3c 47b5 0fbd
00000270: b196 9d3c 5913 acbd 2539 d7bc 3e5c 5fbc
00000280: 24ca 47bd c0ae b23c 9716 f2bb febc ed3b
00000290: 2eee 30bd 2af4 bebd e260 69bb db88 d6bc
000002a0: c9dd 7c3c 55c7 12bd 8f4b d23c 6151 f83c
000002b0: 28a2 d73c 57bc b43c 234a c9bc d045 f3bc
000002c0: 01fb 4dbd 2dab df3d e711 8e3c 1278 2bbd
000002d0: 2e63 d6ba eab5 00be a42f 1cbd 2007 06bd
000002e0: 1282 8dbd 4503 7cbd 40aa 11bc fd45 73bd
000002f0: 1ca5 dd3c e526 843c bd19 af3c 8fdf a9bc
00000300: a009 18bd 563b f43c 8692 423c 6371 a9bd
00000310: cd66 6abc 2ff1 21bd e600 a23b 6c0a 393c
00000320: 1b32 093b 79b9 02bb 9f33 e0bc ee1b 493d
00000330: 5c91 a73c f99d 473d b5f9 6abd 0636 1f3d
00000340: 75de 763d 263b 66bd 127d 98bd ad9a 9cbb
00000350: fa25 853c 0eb9 253d fd1d 64bd ebd5 85bd
00000360: a17c 4dba 232f 393c ef39 f43c 3e21 23bd
00000370: 2f22 d0bd c2fb 4bbc 0dfe 20bd f3ff ce3c
00000380: a854 ae3c 778e 98bc 595a 90bd 2e4f 79bd
00000390: 678d 4abd 03af 7c3b 2b5b 8dbd 20dc d33c
000003a0: f844 c7bd 1388 a1bc 0dd8 743c dd4f ac3d
000003b0: bf4e 0e3e 599a 5b3c a177 643d 7a7c fd3a
000003c0: 483c 7c3d 14cf 623c a77c 0d3b 475f ecbc
000003d0: e224 0cbd e08e 44bd bead be3c 0112 9dbc
000003e0: 0582 c6ba 7f6c 3bbd 47f6 84bd 61b6 833d
000003f0: 3620 03bd 9c55 3bbd 7435 cebc b8b2 72bd
-0.015916146 -0.030640118 -0.07465576 -0.059592042 -0.020960955 -0.086014524 -0.048544146 -0.11418554
0.0011390809 -0.0056915614 -0.11683408 -0.07225686 -0.1025879 0.007308937 -0.09029323 -0.011312439
0.061412107 0.005455432 -0.034433365 -0.07062493 0.027914368 0.03760064 0.06338215 0.007091742
-0.052025005 0.055808634 0.06610732 -0.0016971753 0.086859114 0.09392401 0.07456563 0.08132707
-0.077249415 -0.06522646 -0.03028503 -0.060783483 0.00628893 0.042481422 -0.044061854 -0.027869606
-0.068288624 0.065210275 0.062383313 -0.0368022 0.022421341 0.0542852 0.058240145 0.0923147
0.10143356 0.040383015 0.08029925 0.059264585 0.056106564 0.1135697 0.028579976 0.14060675
0.067384176 -0.002833178 0.010100927 -0.08827897 0.07870989 0.028340895 0.012073495 -0.04641078
-0.039005116 -0.04306095 -0.02235229 -0.10459709 -0.058733344 -0.07689958 0.112329684 0.09909043
0.11871424 0.07208896 0.13602397 -0.10676049 -0.03572128 -0.012466601 0.039861467 -0.015935263
0.014172577 0.030157872 0.07637961 -0.02293348 0.042856738 -0.04112778 -0.0061251335 -0.0014812709
-0.016026288 0.011705265 0.002429756 0.0145494165 0.008386825 0.011036884 0.008129763 0.037665
-0.015835967 0.0055956817 0.0062263026 0.039973646 -0.01858057 0.012855811 -0.05580911 -0.07303291
0.0003548821 0.056537967 0.11658122 -0.03964834 -0.039775915 0.03511356 -0.050329886 0.05573335
-0.0022788765 -0.07411338 -0.02825457 -0.0870513 -0.026760856 -0.042418163 0.023179827 -0.04594743
-0.0014234219 -0.044459566 0.045504708 -0.035061408 -0.04795841 -0.15848245 -0.16118555 -0.09815613
1.1201817e-05 0.07995909 0.09240513 0.10028349 -0.010050816 0.047830395 0.060273368 0.12584771
0.08092457 0.0089565 0.0076657557 0.043066002 0.1848307 0.053350102 0.014532274 -0.063567616
-0.15850422 0.035718046 -0.0048259203 0.046055794 -0.092330426 -0.13904661 0.06014686 -0.054536197
-0.05271927 0.056606002 0.010590321 -0.03508499 0.019236894 -0.08402128 -0.026272366 -0.013632832
-0.04877676 0.021811843 -0.007387947 0.0072551956 -0.043195896 -0.09323914 -0.0035610725 -0.026188305
0.015433737 -0.03583463 0.025670795 0.030312242 0.02632244 0.022062464 -0.024571484 -0.029696375
-0.050288204 0.10921321 0.01734252 -0.041862555 -0.0016356462 -0.12569395 -0.03813137 -0.03272164
-0.069095746 -0.061526556 -0.008890688 -0.059392918 0.02705627 0.016131828 0.021374578 -0.020736484
-0.037118554 0.02981345 0.011875754 -0.0827358 -0.014306736 -0.03953665 0.0049439548 0.011293989
0.0020934406 -0.0019946976 -0.027368365 0.0490989 0.020455055 0.04873464 -0.057367045 0.03886988
0.060270745 -0.056208752 -0.0744573 -0.004779181 0.01625346 0.040459685 -0.05569266 -0.06534942
-0.00078387005 0.011302742 0.029812781 -0.039826624 -0.1016277 -0.01245016 -0.03930478 0.02526853
0.021280602 -0.01862262 -0.070484824 -0.060866527 -0.049451258 0.0038556464 -0.069021545 0.0258618
-0.097299516 -0.019718206 0.014944089 0.0841367 0.13897227 0.013403499 0.05577815 0.0019339465
0.061580926 0.013843317 0.0021589191 -0.028854026 -0.03421486 -0.04798782 0.023276206 -0.019173624
-0.001514495 -0.045757767 -0.06492286 0.064312704 -0.03201314 -0.04573594 -0.025171973 -0.05925247

layer2.0.bias f4 [32]
00000000: ced1 c83d f3f8 173a 44dd 973d 9f87 17bc
00000010: 285f a1bc 3c3d 4cbd d65d 093d 75c2 67bb
00000020: a9ee 53bd c982 223d 2d34 e6bc 17c5 85bd
00000030: 1c05 453b 6076 aebc b6ec 1a3d 4649 93bd
00000040: a1ab 3f3c 28e2 bcbd 35c3 953c 402e 8f3a
00000050: 6bc2 46bd 740d 013e 9361 59bb 1d08 9bbd
00000060: 0844 e93a d992 33bc 58b9 8c3c 90ee 3b3d
00000070: 3690 9f3c bc8a 28bc ec60 893d 46a0 89bd
0.09805642 0.0005797289 0.0741525 -0.009248643 -0.019698694 -0.049863085 0.033536755 -0.0035363708
-0.051741276 0.039675508 -0.028101051 -0.065317325 0.003006286 -0.02129668 0.0378234 -0.0719171
0.011698634 -0.092228234 0.018281559 0.0010923818 -0.048525255 0.12602788 -0.003316973 -0.07569907
0.0017796764 -0.010960304 0.017178223 0.045881808 0.019477945 -0.010286983 0.067079395 -0.06720023

layer2.1.weight f4 [32]
00000000: ab50 8a3f 6f13 953f 0d51 8f3f 2e0d 913f
00000010: 0bf2 8f3f ff4a 8f3f 2d09 963f 6cf9 8c3f
00000020: 2a95 973f d538 933f 4ba3 833f 055c 9b3f
00000030: e542 8b3f 383a 963f 428d 903f d6e3 933f
00000040: 60f4 943f 08bf 933f 7351 9b3f c719 863f
00000050: 091a 953f d2dd 8f3f faeb 903f 62b6 8f3f
00000060: 4a84 9a3f 219e 903f 3d5b 8d3f 9f35 9d3f
00000070: 1293 8f3f bf50 8e3f 4a1a 8c3f bf3e 863f
1.0805868 1.1646556 1.119661 1.1332147 1.1245741 1.1194762 1.172155 1.1013618
1.1842396 1.1501719 1.0284208 1.2137457 1.087979 1.1736517 1.1293108 1.1553905
1.1637077 1.1542673 1.2134231 1.0476617 1.164857 1.1239569 1.1322014 1.1227534
1.2071621 1.1298257 1.1043469 1.2281989 1.1216757 1.1118392 1.0945523 1.0487899

layer2.1.bias f4 [32]
00000000: 00ea 16be d430 5dbe 691d 0fbe 2c00 e8bd
00000010: 4010 26be 2519 55be 65b8 0dbe 295b 0cbe
00000020: 6807 d7bd 2424 babd 79e4 1fbe edee 08be
00000030: f249 63be 54a2 9ebd 8384 56bd e9f3 a6bc
00000040: 383e 00be df36 7bbd 0506 17be e263 2abe
00000050: 1683 3fbe 7522 f2bd 2747 0fbe 2150 2cbe
00000060: 0543 6bbe 9dee d9bd 58b5 4ebe 0182 b2bd
00000070: 661c 3ebe 2619 49be 5725 5bbe 4c8f 0dbe
-0.14737701 -0.21600658 -0.13976063 -0.11328158 -0.16217136 -0.20810373 -0.13839872 -0.1370665
-0.104994595 -0.090889245 -0.15614499 -0.13372393 -0.22196177 -0.077458054 -0.052372467 -0.020379977
-0.12523735 -0.061331626 -0.1474839 -0.16639665 -0.18702349 -0.118229784 -0.13991986 -0.16827442
-0.22974785 -0.10641215 -0.20186365 -0.087162025 -0.1856552 -0.196385 -0.21400963 -0.13824195

layer2.1.running_mean f4 [32]
00000000: d501 96bd f878 4fbe 9984 403c 7329 c03e
00000010: f23c 00be f606 28bf 5374 9d3e 2e8f 02bf
00000020: 8ca1 d7be e3b6 953c c6ec a1be cc7f 13bf
00000030: 85e1 913e e53e 90be 776c 0f3f aecf 1c3e
00000040: 96da 963e 4d18 9f3d d386 07bf ac34 1c3b
00000050: 6856 f43d 001c 6bbe 900e 923e a112 97be
00000060: 5582 92bc 95d4 643e 1f27 cfbe 5245 31be
00000070: 0868 bebd 8c88 67be e8f3 9e39 39bf c7bd
-0.07324568 -0.2026099 0.011750364 0.37531623 -0.12523249 -0.6563562 0.3075281 -0.50999725
-0.42115438 0.018275684 -0.31625956 -0.5761688 0.2849237 -0.28172985 0.5602488 0.15313599
0.29463643 0.07768307 -0.529401 0.0023835106 0.11930543 -0.229599 0.28526735 -0.295064
-0.017884413 0.22346719 -0.40459535 -0.173116 -0.09297186 -0.22610682 0.00030317833 -0.0975327

layer2.1.running_var f4 [32]
00000000: 1732 2e3f aa01 5c3f 41ad 543f 4a0f 853f
00000010: acc3 403f e46d 203f bbcd 573f 23fb 1d3f
00000020: b089 8c3f cf17 9b3f 7597 863f 5aa9 703f
00000030: 99aa 443f 26bd 903f 0bf4 883f 4b9c 843f
00000040: 1c93 6e3f 9cf9 813f c8da 463f 9506 473f
00000050: b099 7b3f dc1c 3e3f 8d38 603f 3116 803f
00000060: 5b14 503f 3f68 913f 1c3c 553f 05d4 bd3f
00000070: 0ce3 693f 6d3b 2e3f 3735 463f 7b20 873f
0.6804518 0.8594004 0.83076864 1.0395291 0.7529857 0.6266768 0.84298295 0.6171133
1.0979519 1.2116641 1.0514971 0.9400841 0.7682281 1.1307724 1.0699476 1.0360197
0.9319322 1.01543 0.77677584 0.7774442 0.98281384 0.74262786 0.8758629 1.0006772
0.8128106 1.1359938 0.83294845 1.4830328 0.9136207 0.68059427 0.7742495 1.0556787

fc.weight f4 [10, 1568]
00000000: 9226 553c 1132 923c 9d7d 16bd f4fc 79bc
00000010: d438 2ebc b3a9 223c 9bc3 12bd 6fb3 38bd
00000020: 5451 483d 8850 24bd 24c4 57bc 9753 14bd
00000030: 34a2 75bd 3548 3c3c cde3 b6bd b8b2 a63c
00000040: 6165 2e3c dec1 8e3c 281d a3bb 2f19 e23c
00000050: 0f14 34bd dbb6 bdbd 6285 e5bc 8b69 03bc
00000060: 1907 aabd 718f 5dbd 3aeb e0bc ee73 95bd
00000070: dd09 34bb a4aa 993c 5bee 58bd 13ad 1ebd
00000080: ebfd f7bc 44c4 5bbc 86e8 3a3d 5f65 36bd
00000090: dd93 783c dc3a 193d 9bc9 13bd 96ce e93c
000000a0: 6a39 f2bc 9578 9dbc fd62 aebc 03c0 8e39
000000b0: 7594 85bc e519 1b3d 2e02 77bc 2c3f 75bd
000000c0: 0560 bbbd cf29 34bc c972 6cbc ba8a 1dbc
000000d0: bd14 023d a0b8 293c 73dc 02bc fdc5 a13d
000000e0: 30ef bfbd 9441 2abe 28be 91bc 8ad4 8dbb
000000f0: a765 003d 85b0 91bc 9f0a 50bd 60fe aabd
00000100: 0934 a5bd 3b78 8b3d aa99 453d 54d9 853d
00000110: 599e 0dbd 7edb ec3b de37 25bb 3f5d 17be
00000120: 4685 8fbd dfda 463d e333 893c 1371 a63b
00000130: f82d 83ba bad8 78bb d960 123d f43f 083d
00000140: 6ed9 81bd 2abc f0bb c008 a8bc 4ffa 143b
00000150: fc94 38bb 7195 3b3d 86c3 3b3c 41a9 f03b
00000160: 1cb9 49bd 74ab 77bc 1c9f 5fbc a32e 47bd
00000170: b951 a33c 6dc4 da3a a731 90bd 0ed4 acbd
00000180: a153 afbc f2b0 823c 730d 62bb aead 403d
00000190: 0ad3 6d3c b751 d4bb 61ae 2abc 5dd3 69bd
000001a0: 47c8 fbbb 6baf 2f3c 8b6d 4dbc a38a 99bb
000001b0: 1217 ebbc c1d6 19bd 8d7e ccbd a9a7 373d
000001c0: d7f6 b73c 7324 ac3c 1ab5 e9bc f39d 823b
000001d0: 1701 953b fb62 aa3c 1373 57bb 8188 913d
000001e0: e337 69bc 4a56 ebbd 503f aa3d e80c 303d
000001f0: 7f11 8f3c af4b ec3c dff8 8b3b 1b3c ea3c
00000200: 8009 15bd 8eae 173d 1c49 eb3b ce49 7ebc
00000210: 5801 9c3c cf58 493c 6c84 803d 46fd a63d
00000220: 8f68 44bc 8179 86bd decf 3abd f874 a6bb
00000230: dd4d f63a 995f a63c 90fa 363b 487b d7bd
00000240: 4c3a c6bd add5 5fbd 73a7 5dbd 52c7 033d
00000250: e68a 9bbc 4c0a 143d 0136 283d 6239 cfbb
00000260: e45f a4bb 1a2d f23c b21d 8abc cd5d 86bc
00000270: bf25 84bd 72e3 b9bd 62cc 9bbd 5553 abbd
00000280: 87be 3bbd 4f1a c33c 759b 333d 17ea acbc
00000290: 6a50 f53b 11cb 113c 14d3 003d f86f 06bc
000002a0: 8c65 99ba 53ca 03bd 66c1 25bd 5ce9 17bd
000002b0: 12ea e5ba c4e5 1b3d 0d52 fdbc 8ac6 b73c
000002c0: d99b a4bc de9a 383b 0504 19bb 4745 613d
000002d0: 04ca 24bc d66c 10bd 1002 c1bc 8811 0fbc
000002e0: 4283 e63c 72c9 703d 9bd6 383d 80a6 bfbc
000002f0: eb89 a9bd 185d 8abd 7580 8dbd 5ba0 38bd
00000300: c878 203d 63b6 023d 5655 a2bd 330e e3bd
00000310: e101 36bd 1c8e 853c b567 acbc 6ae8 86bb
00000320: 3627 5ebc 81df 8f3d 3fa5 a53d 6eed a03c
00000330: 0a0d 01bd 3903 1d3c aa64 9f3b 6a8b e93c
00000340: 67a2 c13b 5b61 a23d 93a8 303d 7e6e 413d
00000350: 4edc 80bc 7d81 14bd 4fdd 39bc 6013 973b
00000360: 377b 1e3d 47a7 4a3d 7466 003b fc2f 1d3d
00000370: 6b01 b43c a14d 03bd 92be dabd 01c6 423d
00000380: 8627 d13c 89f2 8a3b 872a d13d e438 593d
00000390: 60f6 d9bd f4b1 35bd 4fe6 a6bb 4664 77bd
000003a0: 913b e5bc e141 803d c00c 6b3d eb9c a23d
000003b0: 9144 f9bc eb73 40bd 65fb 17bd f39f 0a3d
000003c0: 4553 083d 89b1 593c 007d 353c a07b 38bd
000003d0: bea1 823b 4a02 15bd d74e 1ebd 9783 49bc
000003e0: 0da0 5abc a532 ccbb 1507 dd3c 40d0 b13b
000003f0: 310b 47bd df53 a4bc daa4 9c3a 3fb2 b8bd
0.013009684 0.01784614 -0.036740888 -0.015258063 -0.010633666 0.009928155 -0.035831075 -0.045092996
0.048905686 -0.040115863 -0.013169322 -0.03621253 -0.059969142 0.011491825 -0.08930168 0.020348892
0.010644288 0.017426427 -0.004977841 0.0275999 -0.043964442 -0.092633925 -0.028017703 -0.008020769
-0.08302135 -0.054091875 -0.027455915 -0.072975025 -0.00274717 0.018758126 -0.05296169 -0.038739275
-0.030272445 -0.013413493 0.045631908 -0.04453027 0.015171972 0.03740965 -0.036080938 0.02854089
-0.029568393 -0.019222537 -0.021287436 0.0002722741 -0.016306141 0.03786649 -0.015076203 -0.0598747
-0.09149174 -0.010996296 -0.014431664 -0.0096155945 0.03175806 0.010358959 -0.0079871295 0.078990914
-0.09371793 -0.16626579 -0.017790869 -0.004328315 0.031346943 -0.017784366 -0.05079138 -0.083492994
-0.080665655 0.068100415 0.04824225 0.06535593 -0.03457484 0.007228314 -0.0025210301 -0.14781664
-0.07007842 0.048548575 0.016748374 0.0050793975 -0.0010008207 -0.0037970976 0.035736892 0.033264115
-0.063402995 -0.0073466497 -0.020511985 0.0022732203 -0.0028164973 0.045796815 0.011460191 0.0073443954
-0.0492488 -0.015116561 -0.0136487745 -0.04862846 0.01993643 0.001669062 -0.070407204 -0.08438884
-0.021402182 0.015953515 -0.003449288 0.047040634 0.014515648 -0.0064794677 -0.010417552 -0.057086337
-0.007683787 0.010722975 -0.012538324 -0.0046857162 -0.028697524 -0.03755832 -0.09985075 0.044837628
0.02245657 0.021013474 -0.028528739 0.003986114 0.004547249 0.02079915 -0.0032874986 0.07106114
-0.014234516 -0.11491068 0.08312857 0.04298106 0.017464397 0.028844682 0.004271611 0.028593114
-0.036386013 0.037031703 0.007180346 -0.015520526 0.01904361 0.01228924 0.062752575 0.08153777
-0.011987819 -0.06566144 -0.045608394 -0.0050798617 0.0018791516 0.020309256 0.0027920343 -0.10521561
-0.09679088 -0.054647136 -0.05411477 0.03217251 -0.01898713 0.036142632 0.041067127 -0.0063239792
-0.005016314 0.029562522 -0.016859863 -0.01640215 -0.06452512 -0.09076585 -0.07607342 -0.08365504
-0.045835998 0.023816256 0.043849427 -0.021107716 0.0074863927 0.008898512 0.0314513 -0.008205406
-0.0011703237 -0.032175373 -0.040467642 -0.037087783 -0.0017541072 0.03806092 -0.030922914 0.022433538
-0.020093845 0.002816848 -0.0023348343 0.05499771 -0.01005793 -0.035260044 -0.023560554 -0.008732207
0.02813876 0.058785863 0.04512654 -0.023394823 -0.08278259 -0.067560375 -0.06909267 -0.045074802
0.039177686 0.03191222 -0.07926433 -0.11086693 -0.044435386 0.016303115 -0.021045545 -0.0041170614
-0.013559153 0.07025052 0.08088159 0.019644465 -0.031506576 0.009583288 0.004864295 0.02850886
0.0059092524 0.07928725 0.043129515 0.047224514 -0.01573005 -0.036256302 -0.011344268 0.004610464
0.038691726 0.049475934 0.0019592317 0.03837584 0.021973332 -0.032056455 -0.1068088 0.047552112
0.025531542 0.004240338 0.102131896 0.05303277 -0.106426954 -0.044359162 -0.005093373 -0.060398363
-0.027982505 0.062625654 0.057385206 0.07940086 -0.030428203 -0.046985548 -0.037104983 0.033843946
0.033282537 0.013286957 0.011077166 -0.045039773 0.0039865663 -0.036379136 -0.038649406 -0.01229944
-0.013343823 -0.0062316232 0.026980916 0.0054264367 -0.048594657 -0.020059524 0.0011950985 -0.09018373

fc.bias f4 [10]
00000000: 501f a8b7 3584 d13c 3b4c 86bc 557f 93bc
00000010: 5918 edbb ea0e ea3b a7cc 25bc 681b f4ba
00000020: f819 f8bc 97f7 66bc
-2.0041742e-05 0.025575737 -0.016393771 -0.018005053 -0.0072355685 0.007142891 -0.010119594 -0.001862389
-0.03028582 -0.014097116
